…
Average actions of items: 78.9287211740042
The number of inters: 37649
The sparsity of the dataset: 91.99556927577643%
Remain Fields: ['user', 'whiskey', 'rating']
Fri 20 May 2022 05:03:21 INFO  [Training]: train_batch_size = [64] negative sampling: [{'popularity': 10}]
Fri 20 May 2022 05:03:21 INFO  [Evaluation]: eval_batch_size = [256] eval_args: [{'split': {'RS': [0.8, 0.1, 0.1]}, 'group_by': 'user', 'order': 'RO', 'mode': 'full'}]
Fri 20 May 2022 05:03:21 WARNING  Max value of user's history interaction records has reached 77.40585774058577% of the total.
Fri 20 May 2022 05:03:24 INFO  RecVAE(
  (encoder): Encoder(
    (fc1): Linear(in_features=478, out_features=600, bias=True)
    (ln1): LayerNorm((600,), eps=0.1, elementwise_affine=True)
    (fc2): Linear(in_features=600, out_features=600, bias=True)
    (ln2): LayerNorm((600,), eps=0.1, elementwise_affine=True)
    (fc3): Linear(in_features=600, out_features=600, bias=True)
    (ln3): LayerNorm((600,), eps=0.1, elementwise_affine=True)
    (fc4): Linear(in_features=600, out_features=600, bias=True)
    (ln4): LayerNorm((600,), eps=0.1, elementwise_affine=True)
    (fc5): Linear(in_features=600, out_features=600, bias=True)
    (ln5): LayerNorm((600,), eps=0.1, elementwise_affine=True)
    (fc_mu): Linear(in_features=600, out_features=200, bias=True)
    (fc_logvar): Linear(in_features=600, out_features=200, bias=True)
  )
  (prior): CompositePrior(
    (encoder_old): Encoder(
      (fc1): Linear(in_features=478, out_features=600, bias=True)
      (ln1): LayerNorm((600,), eps=0.1, elementwise_affine=True)
      (fc2): Linear(in_features=600, out_features=600, bias=True)
      (ln2): LayerNorm((600,), eps=0.1, elementwise_affine=True)
      (fc3): Linear(in_features=600, out_features=600, bias=True)
      (ln3): LayerNorm((600,), eps=0.1, elementwise_affine=True)
      (fc4): Linear(in_features=600, out_features=600, bias=True)
      (ln4): LayerNorm((600,), eps=0.1, elementwise_affine=True)
      (fc5): Linear(in_features=600, out_features=600, bias=True)
      (ln5): LayerNorm((600,), eps=0.1, elementwise_affine=True)
      (fc_mu): Linear(in_features=600, out_features=200, bias=True)
      (fc_logvar): Linear(in_features=600, out_features=200, bias=True)
    )
  )
  (decoder): Linear(in_features=200, out_features=478, bias=True)
)
Trainable parameters: 2072278
Fri 20 May 2022 05:03:37 INFO  epoch 0 training [time: 1.91s, train loss: 1577.2395]
Fri 20 May 2022 05:03:46 INFO  epoch 0 evaluating [time: 8.34s, valid_score: 0.171600]
Fri 20 May 2022 05:03:46 INFO  valid result: 
recall@5 : 0.1411    recall@10 : 0.1985    ndcg@5 : 0.1671    ndcg@10 : 0.1716
Fri 20 May 2022 05:03:46 INFO  Saving current: /opt/ml/workspace/RecBole/model_saved/RecVAE-May-20-2022_05-03-35.pth
…
